model/model.pt (torch, 664459 bytes, 25 tensors)

cell_state f4 [128, 1]
0.0 0.0 0.0 0.0 0.0 0.0 0.0 0.0
0.0 0.0 0.0 0.0 0.0 0.0 0.0 0.0
0.0 0.0 0.0 0.0 0.0 0.0 0.0 0.0
0.0 0.0 0.0 0.0 0.0 0.0 0.0 0.0
0.0 0.0 0.0 0.0 0.0 0.0 0.0 0.0
0.0 0.0 0.0 0.0 0.0 0.0 0.0 0.0
0.0 0.0 0.0 0.0 0.0 0.0 0.0 0.0
0.0 0.0 0.0 0.0 0.0 0.0 0.0 0.0
0.0 0.0 0.0 0.0 0.0 0.0 0.0 0.0
0.0 0.0 0.0 0.0 0.0 0.0 0.0 0.0
0.0 0.0 0.0 0.0 0.0 0.0 0.0 0.0
0.0 0.0 0.0 0.0 0.0 0.0 0.0 0.0
0.0 0.0 0.0 0.0 0.0 0.0 0.0 0.0
0.0 0.0 0.0 0.0 0.0 0.0 0.0 0.0
0.0 0.0 0.0 0.0 0.0 0.0 0.0 0.0
0.0 0.0 0.0 0.0 0.0 0.0 0.0 0.0
00000000: 0000 0000 0000 0000 0000 0000 0000 0000
00000010: 0000 0000 0000 0000 0000 0000 0000 0000
00000020: 0000 0000 0000 0000 0000 0000 0000 0000
00000030: 0000 0000 0000 0000 0000 0000 0000 0000
00000040: 0000 0000 0000 0000 0000 0000 0000 0000
00000050: 0000 0000 0000 0000 0000 0000 0000 0000
00000060: 0000 0000 0000 0000 0000 0000 0000 0000
00000070: 0000 0000 0000 0000 0000 0000 0000 0000
00000080: 0000 0000 0000 0000 0000 0000 0000 0000
00000090: 0000 0000 0000 0000 0000 0000 0000 0000
000000a0: 0000 0000 0000 0000 0000 0000 0000 0000
000000b0: 0000 0000 0000 0000 0000 0000 0000 0000
000000c0: 0000 0000 0000 0000 0000 0000 0000 0000
000000d0: 0000 0000 0000 0000 0000 0000 0000 0000
000000e0: 0000 0000 0000 0000 0000 0000 0000 0000
000000f0: 0000 0000 0000 0000 0000 0000 0000 0000
00000100: 0000 0000 0000 0000 0000 0000 0000 0000
00000110: 0000 0000 0000 0000 0000 0000 0000 0000
00000120: 0000 0000 0000 0000 0000 0000 0000 0000
00000130: 0000 0000 0000 0000 0000 0000 0000 0000
00000140: 0000 0000 0000 0000 0000 0000 0000 0000
00000150: 0000 0000 0000 0000 0000 0000 0000 0000
00000160: 0000 0000 0000 0000 0000 0000 0000 0000
00000170: 0000 0000 0000 0000 0000 0000 0000 0000
00000180: 0000 0000 0000 0000 0000 0000 0000 0000
00000190: 0000 0000 0000 0000 0000 0000 0000 0000
000001a0: 0000 0000 0000 0000 0000 0000 0000 0000
000001b0: 0000 0000 0000 0000 0000 0000 0000 0000
000001c0: 0000 0000 0000 0000 0000 0000 0000 0000
000001d0: 0000 0000 0000 0000 0000 0000 0000 0000
000001e0: 0000 0000 0000 0000 0000 0000 0000 0000
000001f0: 0000 0000 0000 0000 0000 0000 0000 0000

weight f4 [128, 138]
-0.029761702 -0.020363428 0.07172035 0.024628252 0.06430459 0.018911019 0.008187562 -0.01939343
0.02749683 0.021333553 0.08353566 0.039919302 0.07678892 -0.010319471 -0.05203512 0.011200719
-0.0038408563 -0.012962393 0.083106235 -0.04148699 -0.05571735 0.07969344 0.066909835 0.022406586
0.059262738 -0.0651765 0.0026356205 -0.034703758 -0.08407228 0.060523733 -0.015274107 -0.0527274
-0.026424333 -0.06731547 -0.061262265 -0.037083987 0.0027962923 -0.058449984 0.015590526 0.026046164
0.07287508 0.015783466 0.005919121 0.059340104 -0.044786774 0.05890882 0.021213435 0.077998444
0.06535016 0.07586312 -0.034038734 -0.046911724 -0.062059663 -0.03898769 0.052516907 -0.030770421
0.0040780157 0.007792391 0.014198668 0.060523733 -0.029167771 0.027633503 0.068559974 -0.078903206
0.019514136 0.042338252 0.06826989 0.050174788 -0.01703234 0.065988064 0.042462602 0.069106564
-0.0036348328 -0.032028623 -0.07861306 0.06806934 -0.0081861615 0.010235973 -0.07797769 -0.066404775
0.030990444 -0.05111276 0.009393081 0.021551393 0.064614475 -0.028919477 -0.07521345 -0.025440577
-0.010082424 0.03701415 -0.05111914 -0.07443378 0.03732881 0.020703256 0.084826544 -0.079321586
-0.0363458 0.055271268 -0.06594473 -0.03309418 -0.023683228 0.07394892 -0.005007088 0.033682473
0.05584465 -0.03582348 0.034553714 -0.06373906 -0.01568611 0.04679978 -0.0033668354 -0.021492638
0.06244494 0.008533023 0.01667367 -0.046155807 0.024287947 0.07996467 0.0033636913 -0.079334594
-0.07486457 -0.062052704 0.06712262 0.010906346 -0.019087426 -0.044649675 0.05982454 -0.056398094
0.017370373 0.07000066 -0.025966547 -0.06012819 -0.045526545 0.05537364 0.05608584 -0.024197608
-0.068477646 -0.052614193 0.029835038 0.05408074 0.005886242 -0.049780823 0.05948241 -0.010223672
-0.07793294 0.014183678 0.007903509 -0.065744564 0.0068977103 0.06495656 -0.0782881 0.05040075
0.04954481 0.058432236 0.084848404 -0.023840215 -0.062961124 -0.021244936 0.032262802 -0.08391093
-0.039317094 0.082133114 0.021616504 -0.07360734 -0.0079212785 -0.03397338 -0.049401198 -0.028481904
0.078177854 0.082913294 0.003000252 0.0013911575 -0.033758067 0.082654595 0.08348963 -0.060367323
0.0716691 -0.07576985 -0.004863575 0.04396215 -0.04094027 -0.06894614 -0.08075608 0.062871456
-0.03685001 0.06733972 0.040617555 -0.060868368 -0.02311692 -0.026541896 -0.03312448 -0.058481023
0.023011707 0.0229652 0.08414292 0.073884174 0.031125031 0.02403348 -0.017796993 0.015045784
-0.061873227 0.06544998 -0.07073128 0.018738315 0.022481948 -0.057691403 -0.039360315 -0.06656267
0.06980048 0.039096475 -0.043433677 -0.014057189 -0.041713145 0.029889733 0.024378553 0.07523668
-0.049699713 -0.06185896 -0.054509126 0.039895788 0.013294935 -0.04345658 -0.048535917 0.0053157657
-0.07805052 -0.068532325 -0.07663916 0.018784687 0.07213567 0.030037515 0.016921677 0.0017186552
-0.06886004 -0.046805143 0.041484967 0.036762394 -0.01272361 -0.023154732 -0.053973638 -0.03402981
0.026200756 0.008044712 -0.036374412 0.007248625 -0.07525564 -0.037322957 -0.07012077 0.055040628
0.019149289 0.07229048 0.038910322 -0.039463222 0.024431244 -0.06937904 0.015192904 -0.063899696
00000000: d0ce f3bc 34d1 a6bc 1ee2 923d 30c1 c93c
00000010: 20b2 833d 48eb 9a3c 2025 063c f8de 9ebc
00000020: 0841 e13c b4c3 ae3c be14 ab3d 6c82 233d
00000030: 8243 9d3d 0013 29bc c722 55bd 3883 373c
00000040: e0b6 7bbb 3860 54bc 9a33 aa3d 43ee 29bd
00000050: e037 64bd 5036 a33d 0608 893d 048e b73c
00000060: 7cbd 723d 427b 85bd 60ba 2c3b 8725 0ebd
00000070: 162e acbd bce7 773d 4040 7abc b0f8 57bd
00000080: d877 d8bc b1dc 89bd 24ee 7abd 61e5 17bd
00000090: 0042 373b 4069 6fbd 686f 7f3c c45e d53c
000000a0: 883f 953d 544c 813c 30f5 c13b 9c0e 733d
000000b0: 5672 37bd 604a 713d ccc7 ad3c a6bd 9f3d
000000c0: 4ed6 853d 205e 9b3d 336c 0bbd 8226 40bd
000000d0: 4632 7ebd 8eb1 1fbd f81b 573d 4012 fcbc
000000e0: e0a0 853b 5057 ff3b 88a1 683c bce7 773d
000000f0: 40f1 eebc a85f e23c 2c69 8c3d 0198 a1bd
00000100: 1cdc 9f3c e06a 2d3d 16d1 8b3d 1484 4d3d
00000110: 6887 8bbc c024 873d 44ed 2d3d be87 8d3d
00000120: 6036 6ebb 7230 03bd e2ff a0bd f067 8b3d
00000130: 401f 06bc c8b4 273c c4b2 9fbd 3aff 87bd
00000140: acdf fd3c 9d5b 51bd 70e5 193c 8c8c b03c
00000150: 9854 843d 8ae8 ecbc 8209 9abd c268 d0bc
00000160: c030 25bc 269c 173d 4e62 51bd bd70 98bd
00000170: 18e6 183d e099 a93c 8ab9 ad3d 5b73 a2bd
00000180: 55df 14bd 2064 623d 080e 87bd c38d 07bd
00000190: 5403 c2bc 8872 973d 8012 a4bb a2f6 093d
000001a0: 5cbd 643d a4bb 12bd 3288 0d3d a089 82bd
000001b0: 2880 80bc 20b1 3f3d 20a6 5cbb 5411 b0bc
000001c0: 44c6 7f3d 18ce 0b3c 3897 883c df0d 3dbd
000001d0: 84f7 c63c 84c4 a33d 6071 5c3b 2d7a a2bd
000001e0: 9852 99bd fa2a 7ebd 9677 893d 88b0 323c
000001f0: 3c5d 9cbc 94e2 36bd 940a 753d b001 67bd
00000200: 504c 8e3c 825c 8f3d ccb7 d4bc fa48 76bd
00000210: 0b7a 3abd 78cf 623d 44ba 653d 103a c6bc
00000220: 023e 8cbd fb81 57bd 9c68 f43c c483 5d3d
00000230: 60e1 c03b fae6 4bbd d4a3 733d 3081 27bc
00000240: 4e9b 9fbd a862 683c b87d 013c 16a5 86bd
00000250: 3006 e23b f207 853d 8355 a0bd 0471 4e3d
00000260: 80ef 4a3d a456 6f3d 00c5 ad3d 8e4c c3bc
00000270: c3f1 80bd dc09 aebc 0026 043d 7ed9 abbd
00000280: f60a 21bd 6835 a83d 1815 b13c 72bf 96bd
00000290: 40c8 01bc ac27 0bbd e958 4abd e252 e9bc
000002a0: b61b a03d 72ce a93d e09f 443b 8057 b63a
000002b0: e645 0abd d046 a93d 9cfc aa3d ba43 77bd
000002c0: 40c7 923d 392d 9bbd a05e 9fbb a811 343d
000002d0: fcb0 27bd a233 8dbd 7263 a5bd c0c2 803d
000002e0: 09f0 16bd 68e9 893d 985e 263d 1c51 79bd
000002f0: b25f bdbc 646e d9bc 89ad 07bd cc89 6fbd
00000300: 0c83 bc3c 8421 bc3c 2053 ac3d 9650 973d
00000310: ecf9 fe3c dce1 c43c 00cb 91bc 9882 763c
00000320: c86e 7dbd a40a 863d 90db 90bd 1881 993c
00000330: 102c b83c d24d 6cbd 4838 21bd 0252 88bd
00000340: 8ef3 8e3d a023 203d 83e7 31bd 2050 66bc
00000350: 67db 2abd 50db f43c 88b5 c73c b015 9a3d
00000360: ed91 4bbd d25f 7dbd f644 5fbd c469 233d
00000370: 00d3 593c 87ff 31bd 99cd 46bd e02f ae3b
00000380: f3d8 9fbd ad5a 8cbd fef4 9cbd 58e2 993c
00000390: debb 933d 3c11 f63c 549f 8a3c 8044 e13a
000003a0: 7e06 8dbd c0b6 3fbd 24ec 293d 2a94 163d
000003b0: b076 50bc feae bdbc 7613 5dbd d862 0bbd
000003c0: f8a2 d63c f8cd 033c 56fd 14bd e085 ed3b
000003d0: a11f 9abd f5df 18bd 7a9b 8fbd 4872 613d
000003e0: f8de 9c3c 080d 943d 6e60 1f3d 30a4 21bd
000003f0: 0824 c83c 9916 8ebd a8eb 783c d8dd 82bd

bias f4 [128]
0.016703762 -0.07126053 0.029831529 0.02144815 -0.0034435168 0.06117758 0.07711819 -0.00087394565
0.029637828 0.052047506 0.0613537 0.007786609 0.065031186 0.0012381375 -0.0847851 0.041996017
0.016750127 0.054955736 0.07980774 -0.04215389 -0.006995961 0.016366899 -0.03668523 -0.050377797
-0.06521828 -0.03944386 -0.023200642 0.0046986267 -0.053033013 -0.008944824 -0.00844264 -0.011040233
-0.060205244 -0.021669395 0.037536822 0.051518008 0.07953614 -0.084157616 0.052429065 0.015207596
0.0163242 -0.05765684 0.022927739 0.06322792 -0.04223945 0.01331602 0.08228068 0.053384632
-0.016717397 -0.06036319 -0.064159706 0.07522157 -0.010694899 0.0044035614 -0.03926463 0.027562216
0.001490891 0.07636686 0.012401648 -0.05241678 -0.06728833 0.05148202 -0.00083152205 0.052582607
0.0015572384 0.02422256 0.04218124 0.080357075 -0.050479304 0.07937184 0.0639936 0.07386318
0.05746925 -0.040132355 0.053804398 0.0024364665 -0.0064167455 0.017528586 -0.020161182 0.028161943
0.026007801 0.07050584 0.083475694 0.07208879 0.006538458 -0.03396999 -0.025936894 -0.0020863935
0.050207958 0.004880719 0.027060956 -0.05203784 0.039090283 -0.007495679 0.046045974 -0.00956092
0.08115168 -0.016469724 -0.0023759305 -0.012311161 -0.015028328 0.078281656 0.012941629 -0.038502473
0.02451028 -0.0026823059 -0.07411663 0.08084257 0.050205633 -0.046254616 -0.06629062 -0.068659
-0.010291167 -0.0049639195 0.047466397 -0.011203818 -0.026689272 -0.018568806 -0.024620637 -0.033027295
-0.069629535 0.06180179 -0.043260366 -0.074711375 0.07202114 -0.044324897 0.036018685 0.062531784
00000000: 54d6 883c 0af1 91bd 4061 f43c 08b4 af3c
00000010: a0ac 61bb 5895 7a3d 24f0 9d3d 8019 65ba
00000020: 08cb f23c c42f 553d 044e 7b3d d026 ff3b
00000030: 122f 853d 0049 a23a cfa3 adbd 0404 2c3d
00000040: 9037 893c 4419 613d 3e72 a33d 8fa9 2cbd
00000050: 603e e5bb e013 863c 4043 16bd f358 4ebd
00000060: 2991 85bd e38f 21bd 460f bebc f0f6 993b
00000070: 2539 59bd 508d 12bc 0053 0abc 18e2 34bc
00000080: c699 76bd 0484 b1bc 36c0 193d 8c04 533d
00000090: d8e3 a23d d45a acbd dcbf 563d 4829 793c
000000a0: 54ba 853c 9429 6cbd f4d2 bb3c a47d 813d
000000b0: 4603 2dbd 702b 5a3c c682 a83d d8a9 5a3d
000000c0: ecf2 88bc 643f 77bd 2a66 83bd c40d 9a3d
000000d0: a839 2fbc c04b 903b f3d3 20bd 28ca e13c
000000e0: 006a c33a 3a66 9c3d 4830 4b3c fab2 56bd
000000f0: 77ce 89bd d0de 523d 80fa 59ba dc60 573d
00000100: 401c cc3a 646e c63c 3cc6 2c3d 4092 a43d
00000110: 63c3 4ebd b48d a23d 140f 833d 9445 973d
00000120: e064 6b3d d361 24bd 0062 5c3d 20ad 1f3b
00000130: 9043 d2bb 1c98 8f3c 1029 a5bc e0b3 e63c
00000140: 500e d53c 5e65 903d 4ef5 aa3d 4aa3 933d
00000150: 9040 d63b 1e24 0bbd 9c79 d4bc e0bb 08bb
00000160: dca6 4d3d 70ee 9f3b f0ae dd3c a125 55bd
00000170: 221d 203d 509e f5bb b49a 3c3d 68a5 1cbc
00000180: da32 a63d 84eb 86bc 80b5 1bbb c0b4 49bc
00000190: 6039 76bc 2252 a03d 2009 543c c5b4 1dbd
000001a0: c8c9 c83c a0c9 2fbb 76ca 97bd ca90 a53d
000001b0: 6ca4 4d3d 7b75 3dbd 60c3 87bd 179d 8cbd
000001c0: 489c 28bc 60a8 a2bb 206c 423d 3890 37bc
000001d0: 76a3 dabc 9c1d 98bc 38b1 c9bc a147 07bd
000001e0: ee99 8ebd e023 7d3d c831 31bd 4702 99bd
000001f0: d27f 933d 068e 35bd 5488 133d aa10 803d

W f4 [256, 128]
0.10641205 -0.031823035 0.6238213 1.5753583 0.19642995 -0.12601939 0.16179262 0.24477085
-1.1290945 0.010320174 0.21841258 0.45518547 1.3886318 0.7746348 0.25466067 0.39562044
-0.27898213 2.0287228 -0.17673516 -0.22608697 1.5939581 0.86278254 1.2394018 1.055961
-1.1098012 -0.98702085 0.7004709 0.22019938 1.716088 0.81608355 0.12958817 -1.0393183
0.11767975 1.1210452 -1.3002988 0.85570735 -2.6569173 -0.6883026 -2.4428496 -0.60332054
1.7013551 -1.2818879 -2.0223489 -1.6426847 0.7246244 1.6708983 -0.55986327 0.5284426
0.98207325 0.26196644 0.56662935 1.8733872 0.45170134 -1.1051968 -1.1661886 1.20583
-0.68998045 2.259763 -0.26706073 0.65101326 -0.89455605 0.22764882 0.4398625 -0.6041712
0.83275896 -0.2923583 -0.95366484 1.150348 -1.9878552 0.105827235 -0.56939733 -1.0609194
0.22235921 -0.6323437 -1.4354496 0.9653365 0.5335865 0.6034646 1.0376884 -0.36502618
-0.4228234 1.1033183 0.6017065 0.23662718 0.9172199 -1.740836 0.2664312 1.4538455
-0.07196076 2.1855037 0.2541561 2.0345142 -0.78175056 1.1580149 -0.17166153 -0.22170202
-0.0650659 0.87133473 1.1660658 0.09472337 -0.47618806 0.54821897 -2.3194895 0.9368208
-0.8520051 -0.4045963 -0.417008 1.2398009 0.66187924 -0.64309144 -1.2739651 0.3723376
0.65117073 -0.3407206 -0.6974178 1.999991 1.3594152 -0.67985445 -0.43305457 0.8281919
0.8962596 -1.44253 -0.2837732 0.93762696 1.0091189 -0.16369815 0.77115107 -0.58801305
0.27853617 -0.012235014 -0.9821505 -0.8727993 -0.8218176 -0.7639053 -0.6671215 1.7398508
0.6936159 0.61812127 0.8912012 1.6772466 -0.31933782 1.4088858 -1.3471501 0.20981994
0.23175533 -0.48659432 0.01169852 -0.49076086 -0.46038154 -0.8329283 0.3295813 0.27807143
-1.4241585 -0.20468983 0.87410486 -1.9636663 0.24183372 1.9460605 1.8365598 -0.6045966
-1.8366569 0.55929667 -0.5065226 0.86843526 -0.5957799 -0.7776665 0.66230196 -1.0235741
-0.018108066 -1.8252658 2.035188 -0.8457129 -0.055710692 2.0673556 0.32673034 0.8795422
-0.6251513 0.6486672 -0.29345673 0.6146265 -0.4341543 0.6215666 -0.028622216 0.18612364
-0.8531625 1.1530876 2.4048572 1.5211269 0.49790916 -0.29936868 0.2635879 2.3167262
-0.6053969 -1.1687285 0.6304872 -0.004546065 -0.36292753 0.23080134 -1.367978 -0.46170983
-0.73090637 1.3434218 0.08350845 1.1088523 0.7523854 1.4703652 -1.268456 0.9267439
0.8988339 -1.0309063 -0.1760157 0.9497591 -0.4427565 0.5528292 1.203611 -0.6211393
-2.443141 -2.3716888 0.5728003 0.1366291 -0.70781 -1.7644945 2.2063568 -0.43735036
0.3712438 2.1411102 0.101137795 -0.08526736 1.528812 -2.2282543 1.1572765 0.46079218
1.1160506 0.48672625 0.8021358 0.30302978 -0.27080563 -0.42074698 0.10356586 2.830474
-0.5613994 0.17524666 0.18001974 0.14873473 0.41945174 0.0910362 -0.06427141 -0.7051167
1.4859343 -1.137727 0.10092443 -0.722893 1.1482636 0.029414793 0.61343277 -1.1934047
00000000: 90ee d93d df58 02bd c1b2 1f3f 57a5 c93f
00000010: ef24 493e 3a0b 01be f7ac 253e 36a5 7a3e
00000020: 2b86 90bf f215 293c 8ca7 5f3e 120e e93e
00000030: b0be b13f 774e 463f e262 823e c38e ca3e
00000040: bfd6 8ebe 98d6 0140 10fa 34be 5883 67be
00000050: d206 cc3f 51df 5c3f b8a4 9e3f bb29 873f
00000060: f70d 8ebf 66ad 7cbf 1052 333f f27b 613e
00000070: c6a8 db3f daea 503f c3b2 043e 6208 85bf
00000080: 1502 f13d 697e 8f3f 3170 a6bf a30f 5b3f
00000090: ef0a 2ac0 9934 30bf a657 1cc0 3773 1abf
000000a0: 01c6 d93f e714 a4bf 2a6e 01c0 7e43 d2bf
000000b0: fc80 393f ffdf d53f 3353 0fbf 0448 073f
000000c0: 2769 7b3f 7720 863e 9f0e 113f 27cb ef3f
000000d0: 6645 e73e 1777 8dbf ab45 95bf a358 9a3f
000000e0: 8fa2 30bf f59f 1040 2fbc 88be cea8 263f
000000f0: a001 65bf c61c 693e a835 e13e f7aa 1abf
00000100: b12f 553f fdaf 95be 6123 74bf 9a3e 933f
00000110: 0a72 febf f3bb d83d 06c4 11bf 35cc 87bf
00000120: 22b2 633e 47e1 21bf d0bc b7bf 4b20 773f
00000130: 2099 083f a87c 1a3f f9d2 843f b6e4 babe
00000140: 4f7c d8be 8939 8d3f 7009 1a3f 654e 723e
00000150: ecce 6a3f b7d3 debf ac69 883e 9c17 ba3f
00000160: 2a60 93bd 4bdf 0b40 c020 823e 7b35 0240
00000170: ce20 48bf d539 943f 0ac8 2fbe db05 63be
00000180: 4541 85bd cb0f 5f3f a541 953f 54fe c13d
00000190: ecce f3be 1458 0c3f 8472 14c0 7dd3 6f3f
000001a0: 021d 5abf 3f27 cfbe 1382 d5be ccb1 9e3f
000001b0: eb70 293f a4a1 24bf 4a11 a3bf 09a3 be3e
000001c0: 20b3 263f ee72 aebe f989 32bf b5ff ff3f
000001d0: 5101 ae3f f10a 2ebf 54b9 ddbe 6204 543f
000001e0: 4571 653f d3a4 b8bf b94a 91be 5208 703f
000001f0: cf2a 813f 7da0 27be 286a 453f 0688 16bf
00000200: 4b9c 8e3e 5e75 48bc 376e 7bbf c66f 5fbf
00000210: a362 52bf 4c8f 43bf 7ac8 2abf 6eb3 de3f
00000220: d090 313f 323d 1e3f c325 643f 04b0 d63f
00000230: 3f80 a3be 5f56 b43f 6a6f acbf 0adb 563e
00000240: 4551 6d3e e422 f9be 26ab 3f3c 0245 fbbe
00000250: 21b7 ebbe ca3a 55bf e1be a83e 615f 8e3e
00000260: d34a b6bf 369a 51be 56c5 5f3f 6b59 fbbf
00000270: 42a3 773e 8318 f93f 6414 eb3f d8c6 1abf
00000280: 9317 ebbf 112e 0f3f 77ab 01bf c651 5e3f
00000290: 0885 18bf 2715 47bf 9f8c 293f 7a04 83bf
000002a0: 5e57 94bc 4fa2 e9bf 8540 0240 a480 58bf
000002b0: e530 64bd 8e4f 0440 3349 a73e ad29 613f
000002c0: ea09 20bf 0e0f 263f f63f 96be 2a58 1d3f
000002d0: 7949 debe fd1e 1f3f 2379 eabc 3297 3e3e
000002e0: dc68 5abf 6098 933f 2ee9 1940 49b4 c23f
000002f0: f3ed fe3e da46 99be fef4 863e 3e45 1440
00000300: 4bfb 1abf e598 95bf 9c67 213f 28f7 94bb
00000310: a3d1 b9be 3057 6c3e e719 afbf 3b65 ecbe
00000320: ae1c 3bbf 3ff5 ab3f 7a06 ab3d dfee 8d3f
00000330: 549c 403f ed34 bc3f c45c a2bf 173f 6d3f
00000340: fa19 663f bdf4 83bf 763d 34be 6a23 733f
00000350: fbb0 e2be 3786 0d3f ed0f 9a3f fc02 1fbf
00000360: 6c5c 1cc0 c0c9 17c0 0aa3 123f 80e8 0b3e
00000370: 0933 35bf f5da e1bf f334 0d40 63ec dfbe
00000380: ab13 be3e f307 0940 5521 cf3d a7a0 aebd
00000390: 1db0 c33f b89b 0ec0 a321 943f f4ec eb3e
000003a0: bfda 8e3f 2f34 f93e c658 4d3f b826 9b3e
000003b0: 09a7 8abe 266c d7be 561a d43d 7c26 3540
000003c0: dfb7 0fbf dc73 333e 1857 383e eb4d 183e
000003d0: 61c2 d63e 3071 ba3d bba0 83bd 8782 34bf
000003e0: 1833 be3f 0aa1 91bf 78b1 ce3d 840f 39bf
000003f0: 4dfa 923f 4bf7 f03c ee09 1d3f 7cc1 98bf

b f4 [128, 1]
-0.0028067823 0.012324441 0.013348717 0.0017707585 0.0009999999 -0.0030389314 0.0033191582 0.0029059388
-0.0035218103 0.015388483 0.004599996 -0.010778567 -0.0010654271 0.003324173 0.0 -0.0021458718
-0.0069184788 0.019589357 -0.004989628 0.004905282 0.0009999999 0.012264463 -0.00012572244 -0.0009999999
-0.0009999999 -0.0077362047 0.0009999999 -0.0037347325 0.010769887 0.0027013558 0.006558904 -0.0023320667
-0.0030767578 0.0 -0.0028651925 0.0002914627 0.0009999999 0.01608742 0.0 0.007070532
-0.015489092 -0.0009999999 -0.008466656 -0.022178782 -0.010319448 0.0017910118 0.0025232953 0.0011689358
-0.0017615219 -0.0009999999 -0.0021659243 -0.0042760125 8.635886e-05 -0.0055919387 -0.015596161 0.00025526353
0.00024116549 -0.0009126525 0.00171682 0.007267177 0.008045597 -0.011993872 0.0009999999 0.0010958932
-0.0025512478 0.0023089235 0.008696751 -0.002737862 0.0010727363 0.0 0.0035732652 0.0010595942
-0.0009999999 -0.022034733 0.0052495403 0.0002559715 0.006938621 -0.00469763 -0.0031364094 -0.010197611
0.0032141027 0.0 -0.0028906397 -0.0021373406 -0.013473355 -0.0036404422 0.0 -0.0033948005
0.0017441905 0.0016014654 0.003519094 0.002935458 -0.003984705 -0.0009999999 4.128908e-05 -4.401653e-05
-0.00025755243 0.0 0.0036647285 0.0024881663 -0.0029448695 -0.0020946818 -0.0032017438 -0.0032291452
0.015743876 -0.0019221039 -0.001 0.011200241 -0.020720495 0.006414972 -0.0009999999 0.0
-0.00025590375 -0.006305302 -0.0016937363 -0.0064833737 0.0017915962 0.0 0.0 -0.0018324071
0.0028894332 -0.0065471884 -0.0009999998 -0.00060769595 0.010870314 0.006327135 -0.00506685 -0.023899535
00000000: fef1 37bb 74ec 493c 94b4 5a3c cc18 e83a
00000010: 6e12 833a cf28 47bb 3c86 593b 9071 3e3b
00000020: 2cce 66bb fa1f 7c3c 90bb 963b 9698 30bc
00000030: cda5 8bba 5eda 593b 0000 0000 c1a1 0cbb
00000040: 68b4 e2bb dc79 a03c 0980 a3bb 7dbc a03b
00000050: 6e12 833a e3f0 483c 5cd4 03b9 6e12 83ba
00000060: 6e12 83ba fd7f fdbb 6e12 833a 6ac2 74bb
00000070: 2e74 303c 3b09 313b 13ec d63b 96d5 18bb
00000080: 6ea3 49bb 0000 0000 f4c5 3bbb 76cf 9839
00000090: 6e12 833a c4c9 833c 0000 0000 ecaf e73b
000000a0: f6c5 7dbc 6e12 83ba bbb7 0abc 47b0 b5bc
000000b0: e712 29bc 62c0 ea3a df5d 253b fa36 993a
000000c0: dee2 e6ba 6e12 83ba 2ef2 0dbb cb1d 8cbb
000000d0: 8f1b b538 953c b7bb 0a87 7fbc e4d4 8539
000000e0: 5ee1 7c39 133f 6fba ec06 e13a 8021 ee3b
000000f0: aed1 033c f281 44bc 6e12 833a 13a4 8f3a
00000100: d632 27bb 4f51 173b d17c 0e3c b46d 33bb
00000110: 0f9b 8c3a 0000 0000 712d 6a3b 15e2 8a3a
00000120: 6e12 83ba 2f82 b4bc 5604 ac3b ea33 8639
00000130: 5f5d e33b 94ee 99bb 388c 4dbb e113 27bc
00000140: b2a3 523b 0000 0000 e370 3dbb a012 0cbb
00000150: 59bf 5cbc 7c94 6ebb 0000 0000 4d7b 5ebb
00000160: 529d e43a 43e8 d13a 9aa0 663b d060 403b
00000170: 2192 82bb 6e12 83ba d02d 2d38 649e 38b8
00000180: 1a08 87b9 0000 0000 f12b 703b 8110 233b
00000190: b6fe 40bb ee46 09bb 59d4 51bb 11a0 53bb
000001a0: 4df9 803c 1bef fbba 6f12 83ba 3781 373c
000001b0: 07be a9bc af34 d23b 6e12 83ba 0000 0000
000001c0: d22a 86b9 b59c cebb 5c00 deba 7b72 d4bb
000001d0: fed3 ea3a 0000 0000 0000 0000 612d f0ba
000001e0: a55c 3d3b cc89 d6bb 6d12 83ba c94d 1fba
000001f0: 6719 323c db53 cf3b d207 a6bb f5c8 c3bc

w_C f4 [256, 128]
0.738596 0.73606706 -0.23102264 -0.8071535 0.10222088 0.66580755 1.1860788 -0.4468753
0.5074589 1.5072306 0.4291856 1.6251059 0.68531644 -0.9371645 0.028055249 1.9759792
0.48039952 0.9609736 0.0313799 -0.1113623 1.0622307 0.23781228 -0.73627883 0.4254759
0.5628233 0.9114536 0.23662777 -0.750569 -0.74404436 1.7095588 0.6770576 -0.34419692
-0.68862 -0.0029020207 -0.6859314 1.8783041 0.9573533 1.5654678 1.0750645 0.9159396
1.1999124 -0.3776655 -1.4260855 1.7098083 -1.8409436 -0.34591264 0.41837743 -0.7083487
1.0824425 0.83512545 -0.41411555 0.76641184 0.9599418 -1.2471805 -1.9350294 -0.9254715
1.4580768 0.30848134 -0.29232797 -0.16237232 -0.64900005 0.35108268 -0.99515873 -0.88552433
2.2775383 -0.46722952 0.22153266 0.4801205 0.16676931 -1.0716568 1.1563827 -0.3358544
-1.9082395 -0.16848215 -1.2838424 1.9953965 0.54246056 2.5369658 -0.68774587 0.79133296
0.5924502 0.16558889 0.26609 -1.0763849 -1.5249331 0.32850754 -0.92809474 -0.1003712
0.56870145 -0.5213778 0.5703742 0.50279856 1.1902897 -0.18340883 1.2952704 0.39604
-2.2057626 -0.9072367 -0.029672729 -1.0660253 -0.8719399 1.3285393 -0.7851091 -0.6331475
0.34593382 0.022875035 -0.774864 -0.28269774 0.66276765 -1.2035594 0.053387135 -1.4594799
-0.6866665 0.41632134 1.3552895 -1.5980892 -0.2316028 0.8764154 0.65667546 2.1434615
0.8499699 1.7378296 1.8014269 -0.36564457 -0.09940035 0.48176333 1.5445889 -1.2368065
-0.06274872 -1.2462215 0.7743259 -0.2951256 -0.81657904 -0.048270322 0.922831 -0.71445745
1.646046 -1.2484202 -0.43599248 1.3801216 0.2515764 1.1014764 -0.1644009 1.0293462
-0.07330599 1.1231551 0.75282407 2.195991 0.89728934 -0.4142502 -0.53870934 -1.1374824
-0.3875058 -0.13986535 -0.16777408 0.972919 -0.022876957 0.07708379 -1.0777637 0.40278885
0.7318166 -0.5415793 -0.89250594 -0.7067546 -0.2569526 -0.9093842 1.1188133 1.2961967
-0.2087595 -0.21681227 0.623582 2.1068177 1.4122552 1.0861394 -0.06960283 -0.119651675
-1.7074318 -1.7145946 -0.18694314 -0.23440573 -0.48468164 -0.63954115 -0.20771569 1.1024238
0.88760805 0.8605029 1.2295933 -0.5762465 -0.022250956 -0.71992993 0.79835343 0.9193792
-0.109478295 1.4698708 -0.30118948 -0.6155014 1.9959451 0.6641391 -0.6693158 -1.862817
-0.54740846 0.48018077 0.47831526 1.1588957 -0.62097913 -0.15704705 0.47697413 1.2673926
-1.095902 -1.0331398 -0.18141274 1.4911664 -0.62265134 1.1433786 1.33182 0.36863407
-0.99837565 -0.99881274 0.4194053 0.12707214 0.17232408 -0.59358394 0.8135565 0.4484469
0.65390235 -0.36267805 0.0476445 0.9085646 0.6782007 0.8126052 0.048444923 0.13011411
0.15554044 1.3424692 2.7635102 1.2021444 0.5870496 -0.41715938 1.0473123 -1.9777771
-1.2566584 -0.03248308 1.4095627 -0.26189983 -0.07084644 -1.1830878 -1.6388779 0.9054956
-1.0503206 -0.49658036 -0.6470932 0.021824861 -0.81051326 1.3571979 0.7097753 -0.12312679
00000000: a114 3d3f e46e 3c3f 3391 6cbe 9da1 4ebf
00000010: 2e59 d13d 5d72 2a3f 6ed1 973f d7cc e4be
00000020: d4e8 013f efec c03f 37be db3e 7803 d03f
00000030: e670 2f3f 03ea 6fbf 1fd4 e53c e3ec fc3f
00000040: edf6 f53e 5e02 763f 3688 003d eb11 e4bd
00000050: 2df7 873f 1085 733e c57c 3cbf fad7 d93e
00000060: 3015 103f 0655 693f 8d4e 723e 4a25 40bf
00000070: b179 3ebf d3d2 da3f a653 2d3f 943a b0be
00000080: 6649 30bf d42f 3ebb 3399 2fbf 456c f03f
00000090: 1b15 753f 4061 c83f b79b 893f 057b 6a3f
000000a0: bb96 993f 5f5d c1be f889 b6bf 00db da3f
000000b0: 0aa4 ebbf 761b b1be 9135 d63e 5756 35bf
000000c0: 7a8d 8a3f c8ca 553f f406 d4be 9133 443f
000000d0: bfbe 753f 9ca3 9fbf 0baf f7bf b3eb 6cbf
000000e0: 43a2 ba3f 44f1 9d3e 03ac 95be ee44 26be
000000f0: de24 26bf 1cc1 b33e b9c2 7ebf b9b1 62bf
00000100: 30c3 1140 b538 efbe 75d9 623e 5bd2 f53e
00000110: 93c5 2a3e 0d2c 89bf 5904 943f 1cf5 abbe
00000120: 3141 f4bf 9686 2cbe f354 a4bf 2769 ff3f
00000130: b2de 0a3f a65d 2240 1d10 30bf cc94 4a3f
00000140: d1aa 173f 2290 293e f33c 883e fbc6 89bf
00000150: 0231 c3bf 2432 a83e 9e97 6dbf 6a8f cdbd
00000160: 6b96 113f 0479 05bf 0b04 123f 68b7 003f
00000170: 6a5b 983f 86cf 3bbe 6ccb a53f c1c5 ca3e
00000180: 372b 0dc0 aa40 68bf 3914 f3bc 8473 88bf
00000190: 7437 5fbf 930d aa3f e9fc 48bf f415 22bf
000001a0: 3d1e b13e 6d64 bb3c 7d5d 46bf c2bd 90be
000001b0: 24ab 293f 3c0e 9abf 78ac 5a3d 3dd0 babf
000001c0: 60c9 2fbf 1228 d53e 207a ad3f 308e ccbf
000001d0: 4929 6dbe c25c 603f e21b 283f 792e 0940
000001e0: a197 593f 3371 de3f 2895 e63f c435 bbbe
000001f0: 6992 cbbd afa9 f63e 17b5 c53f ad4f 9ebf
00000200: 6782 80bd 3084 9fbf 393a 463f b41a 97be
00000210: 530b 51bf 1ab7 45bd a73e 6c3f afe6 36bf
00000220: a3b1 d23f 3ccc 9fbf 683a dfbe d3a7 b03f
00000230: 9fce 803e 2efd 8c3f b658 28be 9ec1 833f
00000240: 7321 96bd 8cc3 8f3f 14b9 403f 1e8b 0c40
00000250: c1b4 653f 9a18 d4be dbe8 09bf 0699 91bf
00000260: 2967 c6be dd38 0fbe f8cc 2bbe 3811 793f
00000270: 7568 bbbc 1bde 9d3d 29f4 89bf 573a ce3e
00000280: 5558 3b3f f1a4 0abf 457b 64bf dfed 34bf
00000290: 4b8f 83be 67cd 68bf 4635 8f3f c6e9 a53f
000002a0: 0dc5 55be 0904 5ebe 12a3 1f3f 1ad6 0640
000002b0: c7c4 b43f 9e06 8b3f ee8b 8ebd f00b f5bd
000002c0: 208d dabf d677 dbbf 066e 3fbe 0e08 70be
000002d0: 3128 f8be f8b8 23bf 6cb3 54be 391c 8d3f
000002e0: 483a 633f eb49 5c3f 5063 9d3f e484 13bf
000002f0: a347 b6bc 544d 38bf e460 4c3f 6f5c 6b3f
00000300: 2836 e0bd ba24 bc3f 8235 9abe 8091 1dbf
00000310: 217b ff3f 0505 2a3f 4858 2bbf ca70 eebf
00000320: f622 0cbf 41da f53e bde5 f43e b256 943f
00000330: 7df8 1ebf f1d0 20be f435 f43e ec39 a23f
00000340: 8446 8cbf ed3d 84bf 43c4 39be 8ade be3f
00000350: 1466 1fbf 3b5a 923f 1479 aa3f 9bbd bc3e
00000360: 8c95 7fbf 31b2 7fbf 4bbc d63e 331f 023e
00000370: b975 303e 1ef5 17bf 3d45 503f d59a e53e
00000380: 2566 273f f0b0 b9be e126 433d b197 683f
00000390: 909e 2d3f e506 503f 2f6e 463d a23c 053e
000003a0: fe45 1f3e 08d6 ab3f 5add 3040 dedf 993f
000003b0: e248 163f ea95 d5be 540e 863f cd27 fdbf
000003c0: 2fda a0bf fa0c 05bd 8d6c b43f bc17 86be
000003d0: f017 91bd 6c6f 97bf c0c6 d1bf 8fce 673f
000003e0: e870 86bf c83f febe e6a7 25bf 0dca b23c
000003f0: cc7d 4fbf a9b8 ad3f d6b3 353f e629 fcbd

b_C f4 [128, 1]
0.0 -0.0066424324 -0.02481415 -0.0018154467 -0.0009999998 -0.00049730844 -0.0013196073 0.0009566173
0.0 -0.024374895 -0.00092604564 -0.0051474767 -0.009780786 -0.002615237 0.0 -8.640217e-05
-0.008191691 0.00072672346 -0.012633384 -0.0077011404 0.0009999999 -0.003228715 0.0019996124 0.0
0.0 -0.0005607101 0.0 0.0 0.001651856 -0.002395886 -0.0006178443 0.00031058735
-0.00015441256 0.0 -0.00058564235 -0.0009999999 0.0009999999 -0.010052458 0.0 0.0076791374
0.008694551 0.0009999998 -0.004001476 -0.0113606 -0.010478993 -0.005097132 0.0043144864 0.004229474
0.0017485608 0.0009999999 0.0021601615 0.02138877 0.0 -0.005027714 0.0 -0.0017202471
0.00024153889 0.001840935 0.0013689029 0.0004655355 -0.0019137682 -0.0072567845 0.0009999999 0.0023278056
-0.00028263894 0.0025193961 0.0039741555 -0.0038859306 0.0021875133 0.0 -0.003212883 -0.001999902
0.0009999999 -0.014618661 0.008766454 0.00025597384 -0.0005875227 -0.0068195336 -0.0019377744 -0.010618702
-0.0007953865 0.0 -0.0028194736 -0.00054729264 -0.0057758163 0.0070112636 0.0 0.0016813896
-0.0009999999 -0.0017939806 -0.00054427824 0.0029868751 -0.0052801627 0.0009999998 0.00072459213 0.0031423317
-0.0009999999 0.0 -0.010924885 -0.00056829606 0.0031797967 0.0025605087 -0.0012237069 0.0021894265
-0.017700845 0.0009999999 0.0009999998 0.0068110633 -0.00840603 -0.005723845 0.0009999999 0.0
-0.00025594624 -0.0001755485 -0.0015493656 0.0031065464 0.0005329608 0.0 0.0 0.003484684
0.0016808743 -0.0055165333 0.001 -0.0031619978 0.010333424 -0.0006377655 0.0 -0.0056809112
00000000: 0000 0000 c3a8 d9bb 0b47 cbbc 48f4 edba
00000010: 6d12 83ba ce5d 02ba acf6 acba 80c5 7a3a
00000020: 0000 0000 dcad c7bc dfc1 72ba 2aac a8bb
00000030: 973f 20bc 6564 2bbb 0000 0000 d032 b5b8
00000040: 7136 06bc 9681 3e3a 41fc 4ebc d959 fcbb
00000050: 6e12 833a d998 53bb ee0b 033b 0000 0000
00000060: 0000 0000 9efc 12ba 0000 0000 0000 0000
00000070: 1783 d83a 4c04 1dbb d4f6 21ba 54d6 a239
00000080: cee9 21b9 0000 0000 cb85 19ba 6e12 83ba
00000090: 6e12 833a 11b3 24bc 0000 0000 46a1 fb3b
000000a0: 9773 0e3c 6d12 833a d01e 83bb cf21 3abc
000000b0: 15b0 2bbc d805 a7bb 8960 8d3b 6697 8a3b
000000c0: f72f e53a 6e12 833a 7f91 0d3b 8037 af3c
000000d0: 0000 0000 86bf a4bb 0000 0000 ea79 e1ba
000000e0: 9a45 7d39 874b f13a c26c b33a 1e13 f439
000000f0: 68d7 faba 52ca edbb 6e12 833a 198e 183b
00000100: 282f 94b9 741c 253b a239 823b 19ab 7ebb
00000110: 625c 0f3b 0000 0000 3b8f 52bb ca10 03bb
00000120: 6e12 833a 1c83 6fbc 2ca1 0f3c 3a34 8639
00000130: fb03 1aba 6576 dfbb ebfc fdba 10fa 2dbc
00000140: 7c81 50ba 0000 0000 ebc6 38bb 3078 0fba
00000150: 0f43 bdbb bebe e53b 0000 0000 1362 dc3a
00000160: 6e12 83ba 0024 ebba e5ad 0eba 73bf 433b
00000170: 3705 adbb 6d12 833a 8ef2 3d3a 94ef 4d3b
00000180: 6e12 83ba 0000 0000 4afe 32bc b4f9 14ba
00000190: 2364 503b 35ce 273b ca64 a0ba 7b7c 0f3b
000001a0: 5d01 91bc 6e12 833a 6d12 833a 572f df3b
000001b0: 72b9 09bc 188f bbbb 6e12 833a 0000 0000
000001c0: 8630 86b9 7113 38b9 1514 cbba 3397 4b3b
000001d0: 65b6 0b3a 0000 0000 0000 0000 4c5f 643b
000001e0: c850 dc3a 09c4 b4bb 6f12 833a 8539 4fbb
000001f0: 864d 293c b82f 27ba 0000 0000 f026 babb

weight f4 [128, 10]
0.2025002 0.26996413 0.19719872 0.009044975 0.06864416 0.07765782 -0.30198082 0.042639583
0.05581811 -0.17686324 0.27942994 -0.27414617 -0.2974697 0.24984106 0.25048319 0.3044844
-0.15412453 0.3058515 -0.26732427 -0.06440057 -0.15906939 -0.027017653 -0.066215396 0.061273873
-0.068545625 -0.30629042 -0.14773013 -0.07372798 0.19669637 0.052056253 -0.23989362 0.16500592
0.21552959 -0.28017634 -0.08949569 -0.050128758 -0.08355363 -0.13969408 0.3108476 0.2969118
-0.1336008 -0.27666628 -0.09613562 0.17524129 0.21557863 0.1028288 0.28906646 0.27654758
-0.07963458 0.10237566 0.04031241 -0.24419416 -0.24042875 0.23299977 -0.21991588 -0.05556798
-0.25256196 0.19693199 0.17775017 0.036248963 -0.2525069 0.063378185 -0.16114524 -0.15600426
0.20536749 -0.058555394 -0.057304144 0.21939912 6.824732e-06 -0.22007334 0.19771102 -0.049514055
-0.11046851 0.2149826 0.28035378 0.2384086 -0.29176506 -0.053405553 -0.05051747 0.18517414
0.2878466 -0.21002918 0.24286035 -0.02125451 0.24030688 0.29962 0.20365772 -0.066564396
0.02059251 -0.30938092 -0.3121039 0.13596916 0.08235857 -0.027822703 0.29887062 0.16620323
-0.26978648 -0.278757 -0.31457165 -0.3164936 -0.19945732 -0.17092952 -0.054552197 0.010841876
0.026825454 0.09605038 -0.253628 -0.25025496 0.22556004 -0.03987955 0.28083923 0.31050506
0.11187884 0.21979085 0.06703406 0.25160524 -0.022916257 0.22487476 0.119514465 -0.057563633
-0.30557394 -0.13333501 0.03754905 0.21995834 -0.29641557 -0.082186684 -0.17633411 0.2619957
-0.025585562 0.27446112 -0.103294 0.08817053 0.26575103 0.18955007 -0.16274463 -0.09272322
0.1385977 0.044187665 -0.16391821 0.31389186 -0.27988625 0.02756387 -0.053226918 0.13077927
-0.12577194 0.11541164 0.21240571 0.039727777 0.18045962 0.25520507 0.19998774 -0.06146708
0.0783748 -0.16479094 -0.029752674 0.10834581 -0.12936966 0.22211 -0.29032263 0.22094975
-0.3134954 -0.041784167 -0.22727989 -0.07344909 -0.04201938 0.069794 0.24918738 -0.053325534
0.07925817 0.03632787 -0.0064579546 0.23090628 -0.16319469 -0.2012663 -0.22690772 0.21959612
0.2023997 -0.18569948 0.057542294 -0.26343843 -0.21845174 -0.10104555 0.05205357 0.013231397
0.26397103 0.16188571 -0.25103953 0.027505606 -0.05450937 -0.18243156 -0.28229952 -0.014859527
0.10040507 -0.11513528 0.3137031 -0.13381407 -0.29529116 -0.28222546 0.30738422 0.09075786
0.19660714 -0.04867652 0.15876365 0.21835402 0.15117024 -0.06354195 0.16315243 -0.2807756
0.15125561 0.14457633 0.08910787 -0.3086824 0.05608219 -0.14754485 -0.18488184 0.19469097
-0.18147339 0.09095749 -0.2749997 -0.24981843 -0.07456508 0.039610982 -0.2713504 -0.23308927
-0.29410908 0.2953671 -0.22258598 0.1488077 -0.12247649 0.22138664 -0.100249186 -0.006104499
0.26225725 -0.2124955 -0.23668052 -0.15505229 0.07197249 0.25415084 -0.15182874 -0.19620317
-0.18343112 0.034882873 0.15322149 -0.20195073 -0.15912828 0.08165473 0.09166163 0.158993
-0.07494119 0.2528139 -0.00026619434 -0.20770669 0.14407665 0.0236696 0.14572862 -0.3141702
00000000: 365c 4f3e bd38 8a3e 76ee 493e 6031 143c
00000010: 4f95 8c3d 100b 9f3d 3b9d 9abe d8a6 2e3d
00000020: 88a1 643d a31b 35be 7111 8f3e e35c 8cbe
00000030: f34d 98be 56d6 7f3e 553f 803e 61e5 9b3e
00000040: d2d2 1dbe 9198 9c3e bade 88be 72e4 83bd
00000050: 16e3 22be 2054 ddbc f09b 87bd 50fa 7a3d
00000060: a661 8cbd 19d2 9cbe 9146 17be b2fe 96bd
00000070: c66a 493e f038 553d aca6 75be 50f7 283e
00000080: cab3 5c3e 4673 8fbe 8449 b7bd d053 4dbd
00000090: 2a1e abbd f70b 0fbe 6b27 9f3e d304 983e
000000a0: a6ce 08be 34a7 8dbe c0e2 c4bd 7472 333e
000000b0: a5c0 5c3e e897 d23d 8500 943e a597 8d3e
000000c0: 7417 a3bd 54aa d13d a01e 253d 090e 7abe
000000d0: f432 76be 7e97 6e3e a131 61be 409b 63bd
000000e0: cd4f 81be 8aa8 493e 2404 363e cb79 143d
000000f0: 9648 81be 6ccc 813d 4203 25be 95bf 1fbe
00000100: db4b 523e c8d7 6fbd c0b7 6abd 2aaa 603e
00000110: 0000 e536 e85a 61be c274 4a3e 40cf 4abd
00000120: 503d e2bd 6624 5c3e 888a 8f3e 6221 743e
00000130: 3b62 95be c8bf 5abd 68eb 4ebd 4a9e 3d3e
00000140: a160 933e e411 57be 62b0 783e f01d aebc
00000150: 0213 763e cb67 993e a68b 503e ea52 88bd
00000160: a0b1 a83c 2d67 9ebe 15cc 9fbe 803b 0b3e
00000170: 9cab a83d 70ec e3bc 9205 993e 2e31 2a3e
00000180: 7421 8abe 3db9 8ebe 890f a1be 730b a2be
00000190: 8a3e 4cbe 2608 2fbe 2072 5fbd 20a2 313c
000001a0: 0ec1 db3c 10b6 c43d 87db 81be 6b21 80be
000001b0: 36f9 663e bd58 23bd 29ca 8f3e 85fa 9e3e
000001c0: bc20 e53d da10 613e 2749 893d 67d2 803e
000001d0: e0ba bbbc 9245 663e 00c4 f43d d8c7 6bbd
000001e0: 3074 9cbe f988 08be 08cd 193d c23c 613e
000001f0: c8c3 97be 7e51 a8bd ee90 34be 4d24 863e
00000200: d098 d1bc 2b86 8c3e ce8b d3bd c092 b43d
00000210: 8510 883e 6a19 423e 87a6 26be ace5 bdbd
00000220: 8eec 0d3e 20fe 343d 2dda 27be 6fb6 a03e
00000230: 404d 8fbe a0cd e13c 7804 5abd 00eb 053e
00000240: 5cca 00be f05c ec3d e280 593e 98b9 223d
00000250: 68ca 383e 3daa 823e 96c9 4c3e e8c4 7bbd
00000260: f882 a03d f5be 28be e1bb f3bc 68e4 dd3d
00000270: 7b79 04be ce70 633e 2ba5 94be a740 623e
00000280: 7882 a0be e025 2bbd 0fbc 68be 7a6c 96bd
00000290: 831c 2cbd 28f0 8e3d fa2a 7f3e e06b 5abd
000002a0: 1c52 a23d 88cc 143d 409d d3bb b272 6c3e
000002b0: 821c 27be c118 4ebe 7f5a 68be cedd 603e
000002c0: de41 4f3e 0128 3ebe 78b1 6b3d 67e1 86be
000002d0: d0b1 5fbe f8f0 cebd 2036 553d 80c8 583c
000002e0: 3627 873e 5ec5 253e 4188 80be 7053 e13c
000002f0: 3845 5fbd 57cf 3abe 9089 90be 6075 73bc
00000300: 2ca1 cd3d 0ccc ebbd b19d a03e 8e06 09be
00000310: 6730 97be db7f 90be 7761 9d3e 42df b93d
00000320: 6253 493e 0861 47bd f092 223e 3298 5f3e
00000330: 5fcc 1a3e 4822 82bd 6e11 273e d2c1 8fbe
00000340: c0e2 1a3e d10b 143e 307e b63d 9f0b 9ebe
00000350: 70b6 653d ff15 17be aa51 3dbe 125d 473e
00000360: 29d4 39be ec47 ba3d c3cc 8cbe 67d0 7fbe
00000370: 94b5 98bd 203f 223d 71ee 8abe f4ae 6ebe
00000380: 7795 96be 5b3a 973e 94ed 63be 0c61 183e
00000390: f4d4 fabd 2eb3 623e 724f cdbd 4008 c8bb
000003a0: 9546 863e 6c98 59be 615c 72be 07c6 1ebe
000003b0: 5066 933d 0f20 823e fe78 1bbe 7ce9 48be
000003c0: 5ed5 3bbe 58e1 0e3d 18e6 1c3e 2ccc 4ebe
000003d0: 86f2 22be 983a a73d 18b9 bb3d 10cf 223e
000003e0: c47a 99bd d370 813e 0090 8bb9 10b1 54be
000003f0: d488 133e c0e6 c13c e239 153e ebda a0be

bias f4 [128]
-0.22099903 0.1575405 -0.2582448 -0.020817399 0.16119337 0.173612 0.1387052 -0.2598232
-0.038704097 -0.004392594 -0.038638473 0.24023989 -0.049637824 0.20734707 -0.18780242 0.035182536
-0.25475496 0.05901736 -0.21560077 -0.091005474 -0.10092656 -0.037404954 -0.2842265 0.26555416
-0.092544496 -0.10214457 0.28575924 -0.011735916 -0.14738742 -0.1350914 0.24199107 0.21048781
0.18994877 0.15269116 0.16242924 -0.055824786 0.22225782 0.0681676 0.11058721 -0.09529272
-0.26699677 0.23847058 -0.29222625 -0.07872954 0.18040863 -0.18674904 -0.29731393 -0.12894942
-0.018158525 0.16546252 0.0045556724 -0.10602434 0.17275095 -0.16323178 -0.2537876 -0.049989164
-0.22324654 0.22725275 0.19008222 0.23380741 -0.30378145 -0.23261978 -0.06473628 -0.17920615
0.012735993 -0.176981 -0.07537554 0.098570764 0.23204318 0.17281604 -0.13442196 -0.2570526
0.16396835 -0.0798479 -0.1295615 -0.00900659 -0.18505836 -0.08544256 -0.20307054 -0.014467627
-0.15684977 0.2141358 0.3066056 0.20146778 0.1997908 0.063222766 -0.011656225 0.27328417
0.045319557 0.25973698 -0.05125624 0.017933398 0.03482279 -0.17672133 0.019328654 -0.096725434
-0.19377735 0.000593096 0.03834614 -0.2988735 -0.15804501 -0.03110677 0.10926193 0.30878434
-0.16673231 -0.054285496 0.23001716 -0.16326559 -0.3083674 -0.2974286 0.3001136 0.055822253
-0.023034066 -0.11635721 -0.06712213 -0.12998345 0.26894352 0.20168373 0.008598864 0.14744216
0.15942338 -0.10399257 -5.1677227e-05 -0.25877342 -0.18147828 -0.3087084 -0.028328896 0.04341668
00000000: 924d 62be 4c52 213e aa38 84be 4089 aabc
00000010: e00f 253e 58c7 313e bc08 0e3e 8c07 85be
00000020: 3088 1ebd c0ef 8fbb 6043 1ebd 7201 763e
00000030: 0851 4bbd ca52 543e 474f 40be 901b 103d
00000040: 3e6f 82be 30bc 713d 73c6 5cbe 1461 babd
00000050: 96b2 cebd f035 19bd 2386 91be b7f6 873e
00000060: f887 bdbd 2c31 d1bd 094f 923e 0048 40bc
00000070: baec 16be 6655 0abe 82cc 773e 1e8a 573e
00000080: ee81 423e 125b 1c3e da53 263e 88a8 64bd
00000090: 8e97 633e 749b 8b3d 8c7b e23d d428 c3bd
000000a0: cdb3 88be a231 743e ae9e 95be f43c a1bd
000000b0: 0abd 383e 243b 3fbe 8839 98be 510b 04be
000000c0: 30c1 94bc 026f 293e c047 953b 4a23 d9bd
000000d0: a0e5 303e 3b26 27be 73f0 81be 70c1 4cbd
000000e0: be9a 64be f2b4 683e eaa4 423e 366b 6f3e
000000f0: 3e89 9bbe e133 6ebe 7494 84bd d181 37be
00000100: a0aa 503c 823a 35be 7e5e 9abd 78df c93d
00000110: ba9c 6d3e b0f6 303e e9a5 09be 669c 83be
00000120: 52e7 273e 4c87 a3bd c5ab 04be 6090 13bc
00000130: f07f 3dbe 82fc aebd b9f1 4fbe a009 6dbc
00000140: 3a9d 20be 6a46 5b3e 69fb 9c3e 924d 4e3e
00000150: f695 4c3e f07a 813d c0f9 3ebc e7eb 8b3e
00000160: 00a1 393d 3ffc 843e 10f2 51bd 10e9 923c
00000170: 58a2 0e3d 70f6 34be 2057 9e3c fc17 c6bd
00000180: 926d 46be 007a 1b3a d810 1d3d f305 99be
00000190: 8dd6 21be a0d3 febc b8c4 df3d fb18 9e3e
000001a0: e0bb 2abe 785a 5ebd 9e89 6b3e 182f 27be
000001b0: 55e2 9dbe 9048 98be 7da8 993e e0a5 643d
000001c0: f0b1 bcbc b04c eebd 5477 89bd 621a 05be
000001d0: f7b2 893e 2e86 4e3e 40e2 0c3c 14fb 163e
000001e0: e23f 233e 0efa d4bd 00c0 58b8 f37d 84be
000001f0: 71d5 39be 070f 9ebe 0012 e8bc b0d5 313d

weight f4 [256, 10]
-0.17703645 0.114481896 0.01310581 -0.09594235 0.08919254 -0.045485258 0.13456634 0.028279334
-0.22607252 -0.28640932 -0.21807575 0.2737898 -0.19588861 -0.2580406 -0.17555928 0.29808667
0.03652525 0.14397979 -0.26667893 0.3006731 -0.165972 0.040135562 0.1398058 0.21770486
-0.24387068 0.2241123 0.009931713 0.19157735 -0.15520903 0.10924405 -0.18815997 0.21804532
-0.1163526 0.023385137 0.00036898255 0.09786099 0.16194788 0.075000405 0.20637873 -0.15934281
-0.10540825 0.12891239 -0.17125651 -0.077363774 -0.28019026 -0.20972025 0.10554063 0.23324671
0.0067442954 -0.03424728 0.15112123 -0.17678644 -0.09046087 -0.022492379 0.05379358 -0.08489549
-0.075410485 -0.25195697 -0.13011445 -0.1681576 -0.30973762 0.0020326376 0.0519374 0.03173527
-0.054043084 0.17422017 0.2538502 -0.19797945 -0.025313765 -0.009489685 0.054923803 -0.20152238
0.17976832 0.1054897 -0.15864047 0.0623343 0.00706926 0.22229746 -0.23280641 -0.18645716
-0.13692567 -0.001231581 -0.016723633 0.19379136 0.13129506 0.098255694 -0.10569683 -0.13730177
-0.13997884 0.04124534 -0.2076503 0.13840604 0.050115645 -0.09474006 -0.2427685 -0.23453692
0.2859439 -0.13745962 0.031468272 0.25551793 0.15663189 0.2172145 0.115112096 0.26521763
-0.22142746 -0.28998017 -0.025447518 -0.23521192 0.22629389 0.30573997 0.07647082 0.004707575
0.21002671 0.03566581 0.21080539 -0.17576925 0.23004994 -0.30968204 -0.21795787 -0.2645343
-0.2514704 -0.26386955 0.00832504 0.038505286 -0.19682492 0.2808105 -0.12174587 -0.1652939
-0.18041311 0.15986934 0.12404853 0.09383547 -0.25369078 -0.28318048 0.1680699 -0.12550256
-0.19093513 0.1402806 -0.034639478 0.022203624 0.30335614 -0.09631427 -0.17065772 0.13091624
0.10453209 -0.11091994 -0.0050055087 -0.29800075 0.13723704 0.00075274706 0.27121672 -0.015689194
0.3151078 0.30310902 -0.28916767 -0.2917889 0.3004857 -0.08290462 -0.30481845 -0.1598553
-0.1798383 -0.081909075 0.12301251 -0.121498615 -0.1821383 -0.09908472 0.00835669 0.30027345
0.1011987 -0.11339103 -0.0044929385 0.20273373 0.2469435 0.31158033 0.026790977 0.26819655
0.15206915 0.1198515 -0.2851289 0.23198906 -0.049377024 0.00942567 0.10725531 -0.121937335
0.29550716 -0.007282883 -0.0030423105 -0.19208539 -0.29097018 0.07289833 -0.28074265 0.08275217
0.08255643 0.1514616 0.21802828 0.22743854 0.1861684 -0.04313928 -0.25776228 0.23587438
0.06158772 -0.27325127 0.21881828 0.036810905 0.09451106 -0.02827838 0.22335783 0.21222112
0.28264335 0.25408444 0.15574464 -0.25140634 -0.058129817 0.26091442 0.08785844 0.13213077
-0.26851887 -0.054440826 -0.19500422 -0.1902959 0.080864966 -0.23836006 0.075743765 0.26045343
-0.2634914 -0.2818924 0.07222468 -0.18045668 0.3065783 0.09366748 -0.21498168 -0.11921631
-0.11192125 0.01938644 0.07458824 -0.08073884 0.14137757 0.11847541 0.29207757 0.092030376
-0.12406501 -0.31253842 -0.040315807 -0.13546328 0.08982223 -0.18855923 0.037623525 0.005319208
0.016674727 0.17969912 0.0040363967 0.2511498 0.020979017 0.2083461 -0.18020627 0.29728743
00000000: 0b49 35be 7c75 ea3d c0b9 563c 6c7d c4bd
00000010: 94aa b63d c04e 3abd c2cb 093e 10aa e73c
00000020: 8e7f 67be 3ea4 92be 404f 5fbe 2d2e 8c3e
00000030: 0697 48be e61d 84be d0c5 33be d19e 983e
00000040: 809b 153d 706f 133e 248a 88be d3f1 993e
00000050: 90f4 29be 3065 243d 4029 0f3e 06ee 5e3e
00000060: 3cb9 79be b27d 653e a0b8 223c da2c 443e
00000070: 1eef 1ebe 58bb df3d 02ad 40be 4647 5f3e
00000080: 464a eebd 3092 bf3c 0074 c139 586b c83d
00000090: aad5 253e d099 993d f254 533e c32a 23be
000000a0: 48e0 d7bd 9c01 043e de5d 2fbe e670 9ebd
000000b0: 1975 8fbe e8c0 56be b025 d83d 3ad8 6e3e
000000c0: 40ff dc3b e046 0cbd 86bf 1a3e 8107 35be
000000d0: 8c43 b9bd f041 b8bc a856 5c3d b0dd adbd
000000e0: d070 9abd 8100 81be b93c 05be 8231 2cbe
000000f0: ee95 9ebe 0036 053b 50bc 543d d8fc 013d
00000100: 485c 5dbd c666 323e a7f8 813e 20bb 4abe
00000110: d05e cfbc a07a 1bbc c8f7 603d e25b 4ebe
00000120: 3015 383e fc0a d83d a672 22be 4052 7f3d
00000130: 40a5 e73b f2a1 633e ce64 6ebe a0ee 3ebe
00000140: 3e36 0cbe 006d a1ba 0000 89bc 3e71 463e
00000150: 3672 063e 483a c93d 9477 d8bd d698 0cbe
00000160: 9d56 0fbe e0f0 283d 48a2 54be 50ba 0d3e
00000170: 1046 4d3d 1407 c2bd 4e98 78be 722a 70be
00000180: 3d67 923e 37c2 0cbe e0e4 003d 3fd3 823e
00000190: 1c64 203e 7a6d 5e3e e4bf eb3d 9bca 873e
000001a0: e1bd 62be 4878 94be 5077 d0bc 65db 70be
000001b0: 96b9 673e f389 9c3e bc9c 9c3d 0042 9a3b
000001c0: 3e11 573e 5016 123d 5edd 573e dbfc 33be
000001d0: 3692 6b3e a58e 9ebe 5930 5fbe 0a71 87be
000001e0: bac0 80be e919 87be c065 083c b8b7 1d3d
000001f0: 798c 49be 65c6 8f3e e655 f9bd ce42 29be
00000200: 37be 38be cab4 233e 280d fe3d d02c c03d
00000210: c2e3 81be 08fd 90be 841a 2c3e be83 00be
00000220: 8084 43be b8a5 0f3e 20e2 0dbd 60e4 b53c
00000230: 7f51 9b3e 6a40 c5bd e6c0 2ebe e80e 063e
00000240: ec14 d63d fe29 e3bd 4005 a4bb 8e93 98be
00000250: de87 0c3e 0054 453a ebdc 8a3e a086 80bc
00000260: cf55 a13e 1b31 9b3e c90d 94be 5b65 95be
00000270: 43d9 993e e6c9 a9bd 2a11 9cbe 1cb1 23be
00000280: 8827 38be f2bf a7bd fced fb3d 44d4 f8bd
00000290: 7682 3abe eeec cabd 80ea 083c 71bd 993e
000002a0: 4441 cf3d 8e39 e8bd 8039 93bb 6e99 4f3e
000002b0: c2de 7c3e 7587 9f3e c078 db3c 0f51 893e
000002c0: 04b8 1b3e b474 f53d 6afc 91be 8a8e 6d3e
000002d0: 903f 4abd 206e 1a3c aca8 db3d 48ba f9bd
000002e0: b74c 973e 40a5 eebb 8061 47bb 08b2 44be
000002f0: 0bfa 94be b84b 953d 80bd 8fbe f879 a93d
00000300: 5813 a93d c018 1b3e ce42 5f3e a6e5 683e
00000310: eea2 3e3e d0b2 30bd 6bf9 83be 0e89 713e
00000320: 6843 7c3d 97e7 8bbe e611 603e 08c7 163d
00000330: 048f c13d 10a8 e7bc eab7 643e 7e50 593e
00000340: a1b6 903e 5b17 823e 867b 1f3e 55b8 80be
00000350: 8819 6ebd 9396 853e 20ef b33d 4a4d 073e
00000360: 4e7b 89be 58fd 5ebd 30af 47be eedc 42be
00000370: 889c a53d a914 74be 8c1f 9b3d 275a 853e
00000380: 58e8 86be 3354 90be 88ea 933d a3c9 38be
00000390: d5f7 9c3e bcd4 bf3d 2824 5cbe ae27 f4bd
000003a0: f836 e5bd 50d0 9e3c b8c1 983d 685a a5bd
000003b0: 48c5 103e 3ca3 f23d 318b 953e 6c7a bc3d
000003c0: cc15 febd 0905 a0be 3022 25bd e3b6 0abe
000003d0: b8f4 b73d ac15 41be 201b 1a3d c04c ae3b
000003e0: 7099 883c 0c03 383e c043 843b b596 803e
000003f0: 30dc ab3c ae58 553e fe87 38be 0f36 983e
